model/GBMPurity.pt (torch, 753748 bytes, 5 tensors)

weight f4 [32, 5829]
00000000: 3d32 0a3c ec46 b33b a813 57bb 2727 5a3c
00000010: 1fe6 a3ba 6ae3 5dba 0fa1 6ebb 9dc7 2e3c
00000020: 01dc 923b 3eb8 10bc cfb4 d33b e123 a63b
00000030: f806 35bb 016f ff3b 64b8 943b cbd7 64bb
00000040: 40dc 413c 3d17 ee3a 6c14 9dbb 42f6 ad3b
00000050: 29e9 2ebb eea3 03ba aa08 03bc 2f40 243c
00000060: 4ce6 0bbc c0d0 fbbb f58f 50ba 4688 04bc
00000070: 35ad 383b 09bb 73bc 8ad1 0e3c 1e93 21bc
00000080: 5037 283c 6d8d fc3a 7542 28bb 89f4 163c
00000090: 8bcc 583b a732 253c aea5 883b 11eb 8cbb
000000a0: 7a66 b73a 7e32 b9bb dd8a a03b e3e7 863c
000000b0: 5cf2 153c 4742 973a 78f0 443c 0842 143b
000000c0: 6e33 f53b a77b e4bb eb60 49bc c8f0 5b3b
000000d0: 6eca 44bc 5153 433c 73fc d43a f82a c03b
000000e0: 828b 6c3b 3b27 10bc 0e82 363c e21f 09bc
000000f0: a044 13bb a4a1 f3bb 81ec 8b3b 6210 d0b7
00000100: 9a1c c03b 1e9b c83a c2bd f93b 7d90 19bc
00000110: 8fc9 14bc 2644 a2bb 8732 463c 838c 8b3b
00000120: 918c 483c 534a 98bc 7103 c4bb e9d3 a6bc
00000130: edb5 01bc 0285 f43a 16d9 203b b581 193c
00000140: 96a1 12bc f712 41bc 6917 2b3c d990 05bc
00000150: 83d9 993b a3c8 e2ba 359b b43b a80c 80bc
00000160: fe1c 09bc f22b 423b f8dc 3cbb bcda 48bb
00000170: 9b84 683b 0bed 9e3a d948 04bc bd07 97bc
00000180: 01df 223c 73a8 6fbb a652 51bb 9959 f5bb
00000190: bd7c 20bc c25c 913b 58a4 c13b 90cd 08bc
000001a0: 0a70 79ba 4b41 98bc c137 87bc a054 a7bb
000001b0: 3d6e 5ebc e462 6cbb 4487 2a3c c0ca f13a
000001c0: 7cb9 663b fc7d 68bc 9d8f cfbb 7f0e f039
000001d0: eeb8 083b 3fc3 c2bb 9198 09bb 378c 75bb
000001e0: 87a4 85bb 7ee8 31bb 0640 11ba b8f1 e0bb
000001f0: 5788 d1bb 86d2 b6bb 026b 533a 2d26 f0bb
00000200: 8248 0d3c 945a 3ebb e44a 2e3c 70d4 a83b
00000210: 50bb 19bc 6660 ef3b 22b9 803a d10c 09bb
00000220: f3ee a2bb 473b 6fbc 0d8f 2e3b 0285 ba3a
00000230: cb12 b63b 812d 35bc c108 393c 3a27 2dbc
00000240: 1d70 9cbb b3a8 623b 8902 cf3a c137 073c
00000250: 9faf 7f3c dfef dbbb f674 873b 2f17 0fbc
00000260: d2d9 7dba 0ff6 4b3a 2cf4 543c dd82 13bc
00000270: 3bbd f73b db00 b23b 8af8 b83b 426f e0bb
00000280: 95df 1d3c 8e42 0b3c f778 d63b 12bb 24bc
00000290: 4fd9 143c 076d 22ba 797f a7bb 3766 283c
000002a0: 4396 67b9 57d1 bdbb 759e e8bb fafa 5abb
000002b0: cf76 f93a b433 2a3b 6096 8abb 64d2 b7bb
000002c0: ae6e 753b 2646 ea3b 97b2 393c 9164 4bbc
000002d0: 83c8 67bb f9f0 ee3b 1081 f53b 4074 c3ba
000002e0: c5d0 1d3b 4cbb aa3b 3910 dbbb a3f5 22bb
000002f0: 5226 11ba e85d 263b fe76 e0ba bad2 1bbb
00000300: f274 0d3c f645 063c 07cf 393b a5a1 fbbb
00000310: 85d2 1c3b c087 943a 32de 673a fbf5 01bb
00000320: 30f9 2ebc 60a2 74bb 5ec8 6c3c cc02 cc3b
00000330: 0bab d53a 38c5 34bc 7fca d0bb 60de 4abc
00000340: 8f79 b4bb 8188 7e3b 5acc 153c c614 73ba
00000350: 58dd 43bc 8330 e9bb 2c13 87bb 4fd7 543c
00000360: d34b ca3b 56f9 923a e49b 633b af18 9bbb
00000370: aaae d0bb a078 d03b 98fa 1abc 83cc 29bb
00000380: f808 24bc 72a6 a93b ad66 283c 3b6e 0dbb
00000390: 4584 43bc 8e52 72bc 96ca debb 244c 5d3c
000003a0: c82e 37ba 6a1a 3c3c aa21 b33b 0fc5 873b
000003b0: 5b5b b23a a22a abbb 4439 debb f3fa 25bc
000003c0: 0700 373b a43c b0bb 53d5 2c3a acec b3bb
000003d0: aa81 f9bb 48c4 d0bb f46e 84bb 6665 a73b
000003e0: 7fd0 23bb 6422 3e3c b2a3 01bb c009 60bc
000003f0: ff0e 1d3b f0ff fabb 7028 a3bb e9cb 05bc
0.008434829 0.005471101 -0.0032818113 0.013314999 -0.0012504495 -0.00084643683 -0.0036411916 0.010667709
0.004481793 -0.008832989 0.006460763 0.005070195 -0.0027622562 0.007795215 0.0045385826 -0.0034918662
0.011832297 0.0018164885 -0.0047936942 0.0053088972 -0.0026689267 -0.0005021681 -0.007997671 0.010025068
-0.008538794 -0.007684797 -0.00079560216 -0.008089131 0.0028179411 -0.014876136 0.00871695 -0.009861736
0.010267094 0.0019268222 -0.0025674377 0.009213575 0.0033080901 0.010082877 0.004170141 -0.004300483
0.0013992332 -0.005651771 0.0048993663 0.016467994 0.009152021 0.0011540138 0.012020223 0.0022622366
0.0074829375 -0.0069727483 -0.012291173 0.0033560265 -0.012011154 0.01192172 0.0016249552 0.0058644973
0.0036093895 -0.008798416 0.011139406 -0.008369418 -0.0022471324 -0.0074350405 0.004270137 -2.4803161e-05
0.0058627846 0.0015305018 0.007621498 -0.009372828 -0.009081258 -0.0049519716 0.012097008 0.0042586937
0.012240545 -0.018590128 -0.0059818556 -0.020364719 -0.00791691 0.0018655362 0.0024543456 0.0093693035
-0.008949658 -0.011784307 0.010442593 -0.00815221 0.004695119 -0.0017302226 0.005511666 -0.015631035
-0.008368729 0.0029628244 -0.002881823 -0.0030647954 0.003547943 0.0012125088 -0.008074009 -0.018436307
0.009940864 -0.003656891 -0.0031940131 -0.0074874875 -0.009795365 0.0044361064 0.005909484 -0.008349791
-0.00095152913 -0.018585822 -0.016506078 -0.0051065236 -0.013576088 -0.0036069686 0.010408226 0.0018447265
0.0035205772 -0.014190193 -0.0063342587 0.00045787168 0.002086218 -0.0059436853 -0.0020995478 -0.0037467608
-0.004078451 -0.0027146633 -0.0005540851 -0.0068647526 -0.006394427 -0.0055792956 0.00080649566 -0.0073287697
0.008623244 -0.0029045688 0.0106379725 0.0051522776 -0.009383038 0.0073051928 0.0009820799 -0.002091218
-0.0049723326 -0.014601535 0.0026635558 0.0014230313 0.0055564395 -0.011058212 0.011293591 -0.010568434
-0.004774107 0.0034585416 0.0015793602 0.008253039 0.015605836 -0.0067119445 0.004133816 -0.008733555
-0.0009683642 0.0007780501 0.012997668 -0.009003368 0.0075604 0.005432231 0.0056448625 -0.0068492005
0.009635826 0.008499755 0.006545182 -0.010054367 0.0090850135 -0.0006196056 -0.0051116315 0.010278276
-0.00022085854 -0.0057927775 -0.0070989677 -0.0033413754 0.00190326 0.002597076 -0.004229352 -0.0056097973
0.0037450003 0.0071494756 0.011334083 -0.012414114 -0.0035367317 0.00729191 0.007492192 -0.0014911965
0.0024080735 0.005210316 -0.0066852835 -0.002486565 -0.0005537021 0.0025385562 -0.0017125306 -0.0023776726
0.008633839 0.008195391 0.0028352158 -0.0076791816 0.002392919 0.001133196 0.00088450604 -0.0019830454
-0.010679528 -0.0037328228 0.014452068 0.0062259194 0.0016301585 -0.011033349 -0.0063717957 -0.01238212
-0.005507655 0.0038838687 0.0091429595 -0.000927281 -0.011954628 -0.0071163788 -0.0041221585 0.012990787
0.0061735897 0.0011213224 0.003473037 -0.004733167 -0.006368478 0.006362036 -0.00945916 -0.0025909252
-0.010011904 0.0051773125 0.010278386 -0.0021580595 -0.011933391 -0.01479019 -0.0067990525 0.013506923
-0.0006987867 0.011480907 0.0054666596 0.0041433643 0.0013607548 -0.005223588 -0.006781729 -0.010130632
0.00279236 -0.0053783227 0.0006593067 -0.00549086 -0.007614334 -0.006371055 -0.004041547 0.005108523
-0.00249961 0.011604879 -0.0019781408 -0.0136742 0.0023965237 -0.0076599047 -0.0049791858 -0.008166292

bias f4 [32]
00000000: eaca a5bb da6a 2fbc 9720 fc3a 36e4 0dbb
00000010: e0b7 f63b f74b 603a 2300 fbbb f33c 423c
00000020: d5ef 8c3b 5e5c 0f3c a19f 29bb 2f5b 5fbc
00000030: b3ad 353c 963a 8ebb 4c24 03bb 584d 37ba
00000040: 94ac 743c 7baf 833b d6f3 203b 0b0f 9dbb
00000050: b24c 1ebb f3d9 93ba d4bb 753c e3bc 023c
00000060: 5124 e43b 399d 843c 87cc fe3b 25fc 61ba
00000070: 4be4 313c 495c 823b 4d2a 2e3c 0941 06bc
-0.0050595896 -0.010706628 0.0019235787 -0.0021650917 0.007529244 0.00085562415 -0.0076599284 0.011855352
0.004301051 0.008750049 -0.00258825 -0.01363258 0.011088776 -0.00434048 -0.0020010648 -0.0006992421
0.014933724 0.0040187216 0.00245594 -0.004793053 -0.00241546 -0.0011280164 0.014998395 0.007979604
0.006962337 0.01618825 0.0077758464 -0.00086206413 0.010857652 0.0039782864 0.0106302025 -0.0081942165

weight f4 [16, 32]
00000000: ae3d c9bd 2c06 273e 8acb b63d 558e 413d
00000010: 12fc db3d 21a2 1d3e 1d62 30be d31d d93d
00000020: 5a10 27be 3827 013e fc93 f53d 2132 583d
00000030: 2e02 ce3b ec3b c73d 496f 8ebd 03a9 f73b
00000040: 08be 24bb 0d5d 06be 7726 8d3d b476 b2bd
00000050: 2952 f9bd ac71 29be d7f8 ec3d 2f58 cd3d
00000060: 9050 93bd a1ed 31bd 5ddd 81bc c43a 013e
00000070: 452e d03d ddce 293e 5e02 403d fa4f f53c
00000080: 5dd6 c63d 093e 1ebe 96e8 a53d 0e72 4bbd
00000090: 9b61 463d 6b2d 47bc 8290 31be 8562 823d
000000a0: c50c 86bc 9a7c 2bbe 51a6 fbbd bb8a 193d
000000b0: e4e7 fd3d 2e14 ce3c 1e13 e03d 604e 3d3d
000000c0: 3270 2c3e 7176 d2bd 05e7 a2bd 406e 9bbd
000000d0: 7b8b 293e ca29 803d 4055 a53d 8afa 823d
000000e0: 651d edbd 753c 2f3e e0f5 2cbe 847d a53d
000000f0: a672 193e 5014 e13d af96 27be 2494 d1bd
00000100: d318 adbc 0682 c23d f6d6 c6bd c482 13bd
00000110: f420 68bd 2a36 15be 28be cebd 8888 ffbc
00000120: d020 193e 61be b7bd d019 173c 874c 99bd
00000130: 8ade 0f3e 71d2 0f3e e145 96bd f185 513d
00000140: 7ab5 123e e1af 243c 3384 2a3d fa1a e2bd
00000150: ead9 1dbc 5a40 eebb 3365 27be 8de9 f4bd
00000160: dede cdbd 871a dfbd fad7 8c3c 1b07 02bd
00000170: 5b51 bebd 828f 7bbd d642 a63d 87e9 093e
00000180: 56cd af3d dffa 11be cc61 d0bd 8bb3 2f3e
00000190: b698 be3d 1fb4 ccbc 44e1 08be 46d2 053e
000001a0: 8328 dd3c f154 e9bc e2a7 19be ed05 93bd
000001b0: f346 bebd dc94 b9bd 30fe 97bc 5129 a3bd
000001c0: 782c 993d 4714 a13d ae1c a4bd 8b80 893d
000001d0: d634 b43b e527 afbd c88f 043e 6c36 d3bd
000001e0: 0c48 be3d a2f2 2dbe 86ab 1f3e f911 8a3d
000001f0: da4e 0c3e 5ab2 ec3d 768b 173e 7a39 293e
00000200: bc91 ac3d 1a5e 283d 08d5 f3bd 5230 1abe
00000210: 2981 fd3d cecd 8bba 4061 bd3d 6a10 ff3d
00000220: 3436 1ebe 2c7c a1bc 3d91 aa3d e294 d53d
00000230: 2bb2 993d 3169 dd3d 22b7 a0bb 5706 bb3d
00000240: 41d0 823c 70b9 913c 49e1 cfbd 5d30 d3bc
00000250: b9f2 f63d 1072 d43d 40ac 04be af6c 233e
00000260: e2e8 b23c 8687 0bbe b6d9 203c 8d6c a43c
00000270: 01e6 a63d 0358 16be 25bf 1b3b 1b56 123c
00000280: 3fea d9bd 389e 04bd bb90 1b3d 3da7 2c3e
00000290: cc9d 0d3e a0f6 83bd c402 1d3e 7ab7 1fbe
000002a0: ac52 2abe 2930 773d e305 c5bc 56f1 48bc
000002b0: 762f 0c3e 1334 553d 478e d33a 1237 d33d
000002c0: e331 5bbd 89f2 14be 98e3 2cbe 9be0 06be
000002d0: 66b0 9ebd c71b ccbc c896 1fbe e35a d13d
000002e0: 8a10 0ebe 3dd6 1cbe ec84 96bd 6241 1b3e
000002f0: dec6 13be 8f9a b4bd c3ba a5bc 2dc8 f6bc
00000300: 4a3a 013e f518 8d3d c986 44bd deca 4cbd
00000310: f39f 713d 50da bebc 3c24 bdbc b531 8ebd
00000320: b974 ffbd 0fce 19bd 14ea ab3a f2e5 e3bd
00000330: 1f22 1e3c ab3a 8f3c f4e2 88ad 73a9 aebc
00000340: 572d 16be 6041 acbd def7 cdbd 7506 52bb
00000350: be92 863d 0d5f 283a 0607 bf3d 91df c1bd
00000360: ed17 abbc 0765 bfbc 014b e3bd e87c cfbd
00000370: 5904 72bd 7efd 603d ea81 693d 67f2 7ebc
00000380: 973b 2c3e 2fce fc3a 798b b6bd 8a53 ce3d
00000390: 13a0 c1bd 8a28 a8bd 0001 0e3e d2a7 84bb
000003a0: d2d0 413d 9875 2e3e 9fc6 3fbd 88c1 4fba
000003b0: 94eb 2cbe 58ba 2dbe 3c96 b33d d33f 0b3e
000003c0: 89e6 5c3d ff8b 32be 0717 aabd 1aa9 0c3e
000003d0: 12d2 e238 7986 2b3e 3b06 0abe 11d3 5e3d
000003e0: 2749 aa3d 83d6 7abc 114f eb3c 8543 98bd
000003f0: 0b9a 963d efc8 20be ebab 4fbd 3036 24be
-0.098262176 0.16310948 0.08925541 0.04725488 0.10741438 0.15393879 -0.17224927 0.10601392
-0.16314831 0.12612617 0.119911164 0.05278218 0.006286881 0.09728226 -0.0695482 0.0075579896
-0.0025137682 -0.13121434 0.06892102 -0.08714047 -0.12173874 -0.16547269 0.115709 0.10026585
-0.071931005 -0.04343951 -0.015852625 0.12620074 0.10165075 0.16582818 0.046877258 0.029945362
0.09708855 -0.15453352 0.08101003 -0.049669318 0.048432928 -0.012156825 -0.17340282 0.06366447
-0.01636351 -0.1674675 -0.12287582 0.03748582 0.12397745 0.025156107 0.10941146 0.046217322
0.16839674 -0.10276497 -0.0795422 -0.07589388 0.16557114 0.06257971 0.08072901 0.06395443
-0.11577872 0.17112906 -0.16890669 0.08080581 0.14985141 0.109902024 -0.16366075 -0.10233334
-0.021130001 0.09497456 -0.09708969 -0.03601338 -0.05667205 -0.14571443 -0.10094863 -0.031193033
0.14953923 -0.08971859 0.009222463 -0.074852996 0.14049736 0.14045121 -0.07337547 0.051153127
0.1432704 0.010051698 0.04162998 -0.110403016 -0.009634474 -0.007270855 -0.16347198 -0.11958609
-0.10052274 -0.108937316 0.01719283 -0.031745058 -0.09292861 -0.061416157 0.08118217 0.1346799
0.085840866 -0.14255856 -0.10174903 0.17158334 0.09306471 -0.024988232 -0.13367182 0.13068494
0.026996857 -0.028482886 -0.15005448 -0.07178865 -0.09290876 -0.09061596 -0.018553823 -0.07966865
0.07479185 0.07865196 -0.08013283 0.06713971 0.0054994626 -0.08552531 0.12945473 -0.103131145
0.092910856 -0.16987088 0.15592775 0.06741709 0.13701954 0.11557455 0.14799294 0.16525832
0.08426234 0.041105367 -0.11905867 -0.15057495 0.12378151 -0.0010666193 0.092470646 0.124543026
-0.15450364 -0.01971253 0.08328483 0.10428788 0.07504686 0.10811079 -0.0049046436 0.091320686
0.015968444 0.017788619 -0.101503916 -0.025779897 0.120580144 0.10373318 -0.12956333 0.15959428
0.021839563 -0.13625917 0.009817531 0.020071292 0.081493385 -0.14682011 0.0023765054 0.008931662
-0.10640382 -0.03237745 0.037979823 0.16860671 0.13829726 -0.06443524 0.15333086 -0.15597335
-0.166331 0.060348663 -0.024050659 -0.01226457 0.1368998 0.052051615 0.0016140424 0.10313238
-0.053514373 -0.14545645 -0.16883695 -0.13171618 -0.07748489 -0.024915589 -0.15584862 0.102224134
-0.13873497 -0.153161 -0.073495716 0.1516166 -0.1443133 -0.08818542 -0.020230656 -0.030124748
0.12619892 0.06889526 -0.047980104 -0.049998157 0.05899043 -0.023297459 -0.023088567 -0.069430746
-0.12473435 -0.03755003 0.0013116025 -0.11127843 0.00965169 0.01748403 -1.5562197e-11 -0.021321034
-0.14665733 -0.08410907 -0.100570425 -0.0032047306 0.065709576 0.0006422855 0.093275115 -0.0946647
-0.020885432 -0.023363603 -0.1109829 -0.10131246 -0.059086177 0.05492925 0.05700866 -0.015560723
0.16819607 0.0019287522 -0.08913321 0.100745276 -0.0945436 -0.08210857 0.13867569 -0.004048326
0.047318287 0.17037046 -0.04682028 -0.0007925262 -0.16886741 -0.16965616 0.08768889 0.13598566
0.053930793 -0.17436217 -0.08305173 0.13736382 0.000108156484 0.16750516 -0.13478939 0.054400507
0.08314734 -0.015309933 0.028724225 -0.07434753 0.073536 -0.1570165 -0.050701063 -0.16036296

bias f4 [16]
00000000: bde0 2bbe ee21 ce3d 043a 30bd 160f f23d
00000010: ca9f 2abe 7d47 fd3c bc00 80bb a55f 08be
00000020: 2b97 09be 4137 a9bd dbd9 0d3e 73ba 8a3d
00000030: 9376 a5bd 6815 89bc 7865 513d f283 e4bd
-0.1678495 0.10065065 -0.043024078 0.11819284 -0.16662517 0.030917877 -0.0039063375 -0.13317735
-0.13436572 -0.08262492 0.13852637 0.067738436 -0.08079257 -0.01673384 0.05112216 -0.11157979

weight f4 [1, 16]
00000000: 1e5c 78be 9d4f f93d 4a08 9cbd d0e0 53be
00000010: b5a1 60be 73d1 55be 25ba 09bd d505 28be
00000020: 29a6 23be 5449 83bd bb6c bbbd 55f8 093d
00000030: bb74 383e 7a7f 26be c064 03be d935 743d
-0.2425389 0.12173388 -0.076187685 -0.20691228 -0.21936686 -0.2088068 -0.033624787 -0.16408475
-0.15981354 -0.064104706 -0.09151598 0.033684094 0.18013279 -0.16259566 -0.12831402 0.059621666
